applied_ai/text/fairseq/classifier/checkpoints/checkpoint_last.pt (torch, 385056 bytes, 13 tensors)

one_hot_inputs f4 [64, 64]
00000000: 0000 803f 0000 0000 0000 0000 0000 0000
00000010: 0000 0000 0000 0000 0000 0000 0000 0000
00000020: 0000 0000 0000 0000 0000 0000 0000 0000
00000030: 0000 0000 0000 0000 0000 0000 0000 0000
00000040: 0000 0000 0000 0000 0000 0000 0000 0000
00000050: 0000 0000 0000 0000 0000 0000 0000 0000
00000060: 0000 0000 0000 0000 0000 0000 0000 0000
00000070: 0000 0000 0000 0000 0000 0000 0000 0000
00000080: 0000 0000 0000 0000 0000 0000 0000 0000
00000090: 0000 0000 0000 0000 0000 0000 0000 0000
000000a0: 0000 0000 0000 0000 0000 0000 0000 0000
000000b0: 0000 0000 0000 0000 0000 0000 0000 0000
000000c0: 0000 0000 0000 0000 0000 0000 0000 0000
000000d0: 0000 0000 0000 0000 0000 0000 0000 0000
000000e0: 0000 0000 0000 0000 0000 0000 0000 0000
000000f0: 0000 0000 0000 0000 0000 0000 0000 0000
00000100: 0000 0000 0000 803f 0000 0000 0000 0000
00000110: 0000 0000 0000 0000 0000 0000 0000 0000
00000120: 0000 0000 0000 0000 0000 0000 0000 0000
00000130: 0000 0000 0000 0000 0000 0000 0000 0000
00000140: 0000 0000 0000 0000 0000 0000 0000 0000
00000150: 0000 0000 0000 0000 0000 0000 0000 0000
00000160: 0000 0000 0000 0000 0000 0000 0000 0000
00000170: 0000 0000 0000 0000 0000 0000 0000 0000
00000180: 0000 0000 0000 0000 0000 0000 0000 0000
00000190: 0000 0000 0000 0000 0000 0000 0000 0000
000001a0: 0000 0000 0000 0000 0000 0000 0000 0000
000001b0: 0000 0000 0000 0000 0000 0000 0000 0000
000001c0: 0000 0000 0000 0000 0000 0000 0000 0000
000001d0: 0000 0000 0000 0000 0000 0000 0000 0000
000001e0: 0000 0000 0000 0000 0000 0000 0000 0000
000001f0: 0000 0000 0000 0000 0000 0000 0000 0000
00000200: 0000 0000 0000 0000 0000 803f 0000 0000
00000210: 0000 0000 0000 0000 0000 0000 0000 0000
00000220: 0000 0000 0000 0000 0000 0000 0000 0000
00000230: 0000 0000 0000 0000 0000 0000 0000 0000
00000240: 0000 0000 0000 0000 0000 0000 0000 0000
00000250: 0000 0000 0000 0000 0000 0000 0000 0000
00000260: 0000 0000 0000 0000 0000 0000 0000 0000
00000270: 0000 0000 0000 0000 0000 0000 0000 0000
00000280: 0000 0000 0000 0000 0000 0000 0000 0000
00000290: 0000 0000 0000 0000 0000 0000 0000 0000
000002a0: 0000 0000 0000 0000 0000 0000 0000 0000
000002b0: 0000 0000 0000 0000 0000 0000 0000 0000
000002c0: 0000 0000 0000 0000 0000 0000 0000 0000
000002d0: 0000 0000 0000 0000 0000 0000 0000 0000
000002e0: 0000 0000 0000 0000 0000 0000 0000 0000
000002f0: 0000 0000 0000 0000 0000 0000 0000 0000
00000300: 0000 0000 0000 0000 0000 0000 0000 803f
00000310: 0000 0000 0000 0000 0000 0000 0000 0000
00000320: 0000 0000 0000 0000 0000 0000 0000 0000
00000330: 0000 0000 0000 0000 0000 0000 0000 0000
00000340: 0000 0000 0000 0000 0000 0000 0000 0000
00000350: 0000 0000 0000 0000 0000 0000 0000 0000
00000360: 0000 0000 0000 0000 0000 0000 0000 0000
00000370: 0000 0000 0000 0000 0000 0000 0000 0000
00000380: 0000 0000 0000 0000 0000 0000 0000 0000
00000390: 0000 0000 0000 0000 0000 0000 0000 0000
000003a0: 0000 0000 0000 0000 0000 0000 0000 0000
000003b0: 0000 0000 0000 0000 0000 0000 0000 0000
000003c0: 0000 0000 0000 0000 0000 0000 0000 0000
000003d0: 0000 0000 0000 0000 0000 0000 0000 0000
000003e0: 0000 0000 0000 0000 0000 0000 0000 0000
000003f0: 0000 0000 0000 0000 0000 0000 0000 0000
1.0 0.0 0.0 0.0 0.0 0.0 0.0 0.0
0.0 0.0 0.0 0.0 0.0 0.0 0.0 0.0
0.0 0.0 0.0 0.0 0.0 0.0 0.0 0.0
0.0 0.0 0.0 0.0 0.0 0.0 0.0 0.0
0.0 0.0 0.0 0.0 0.0 0.0 0.0 0.0
0.0 0.0 0.0 0.0 0.0 0.0 0.0 0.0
0.0 0.0 0.0 0.0 0.0 0.0 0.0 0.0
0.0 0.0 0.0 0.0 0.0 0.0 0.0 0.0
0.0 1.0 0.0 0.0 0.0 0.0 0.0 0.0
0.0 0.0 0.0 0.0 0.0 0.0 0.0 0.0
0.0 0.0 0.0 0.0 0.0 0.0 0.0 0.0
0.0 0.0 0.0 0.0 0.0 0.0 0.0 0.0
0.0 0.0 0.0 0.0 0.0 0.0 0.0 0.0
0.0 0.0 0.0 0.0 0.0 0.0 0.0 0.0
0.0 0.0 0.0 0.0 0.0 0.0 0.0 0.0
0.0 0.0 0.0 0.0 0.0 0.0 0.0 0.0
0.0 0.0 1.0 0.0 0.0 0.0 0.0 0.0
0.0 0.0 0.0 0.0 0.0 0.0 0.0 0.0
0.0 0.0 0.0 0.0 0.0 0.0 0.0 0.0
0.0 0.0 0.0 0.0 0.0 0.0 0.0 0.0
0.0 0.0 0.0 0.0 0.0 0.0 0.0 0.0
0.0 0.0 0.0 0.0 0.0 0.0 0.0 0.0
0.0 0.0 0.0 0.0 0.0 0.0 0.0 0.0
0.0 0.0 0.0 0.0 0.0 0.0 0.0 0.0
0.0 0.0 0.0 1.0 0.0 0.0 0.0 0.0
0.0 0.0 0.0 0.0 0.0 0.0 0.0 0.0
0.0 0.0 0.0 0.0 0.0 0.0 0.0 0.0
0.0 0.0 0.0 0.0 0.0 0.0 0.0 0.0
0.0 0.0 0.0 0.0 0.0 0.0 0.0 0.0
0.0 0.0 0.0 0.0 0.0 0.0 0.0 0.0
0.0 0.0 0.0 0.0 0.0 0.0 0.0 0.0
0.0 0.0 0.0 0.0 0.0 0.0 0.0 0.0

rnn.i2h.weight f4 [128, 192]
00000000: 1680 e93c baf4 1dbd 7699 7ebc 3cbf 0a3d
00000010: 07d5 a9bc 3e53 743c 85dc f1bc 4532 db39
00000020: 2951 2d3d 25c4 1d3d 38c8 323d 6434 8dbd
00000030: 4879 2b3d a542 b0bd 628f 963d 6d6c 0ebd
00000040: 766b 393d b139 403c 1180 023d 29ab 5d3c
00000050: 624c e1bc e7e8 1ebd ea1f 913c 2f4b e0bb
00000060: 7e67 04bb 8437 e33a bd48 283d 00db ee3b
00000070: 68c1 eebb 38d0 793d 7e13 0f3d 18e9 b03d
00000080: 2cc0 393d 0006 4dbd 5cbf 85bd cf13 72bd
00000090: 2f01 b03d b35f 44bc 48ba 233d afdf 56bd
000000a0: ab54 a43d afd2 2dbd 7ee0 813d 3038 7c3c
000000b0: bcea 47bd 827b 3b3d 1c66 51bc 1bc2 813c
000000c0: 13a1 24bc 34d1 b73a 03eb 92bd d879 f8bc
000000d0: e10b 1c3d 038b 9ebc ae3a 763d 3b95 943d
000000e0: dfcd 4abc 0cdb 19bd e202 343d 347c b73c
000000f0: 7615 3fbd ee01 403d 1876 333d a615 833d
00000100: 8605 56bd b99a b53b e867 3fbc f412 6f3b
00000110: 8bbe 8cbd 8a4b 5cbd 4288 d23c 7840 d6ba
00000120: 7cba ae3c 2556 8e38 5531 5e3c 3c5e b3bb
00000130: 7d9f 163d e2a8 d13c 78f7 71bd bd33 463d
00000140: 7d48 85bd fef8 90bd cc7b 163d 81ea a1bc
00000150: 50fe 0d3d 4a39 843b 8db4 12bd f9e5 093d
00000160: 32fa 07bd db6a 543d 71c8 183d c790 90bd
00000170: d8f4 ee3c e282 033b cf6c 12bd bd00 9abc
00000180: 0b04 1f3d 5698 8b3a 01e5 97bc 89d0 19bc
00000190: f5ad a13d be4c 66bc d4b8 863d 79a0 533c
000001a0: 359d f0bc a008 64bd f930 5d3d 3708 943c
000001b0: b2f8 133d 9945 44bb fac1 523c 5e0e 863d
000001c0: a38a 713d 1282 70bd 0c1d bb3a bc50 303d
000001d0: 5fce 233d cc1b 633d dc4e 17bd eb7d 8bbd
000001e0: 6159 6fbd 4ab6 7e3a 0c3d ad3d 63aa 74bd
000001f0: 9e1e 4e3d 2f57 43bd be22 b0bd 50c5 16bd
00000200: f29b 663d 81a8 683d 9f57 4cbd 3974 a7bb
00000210: e204 213d a54d 793d 6c11 933c 17d2 7c3d
00000220: e72d 6f3d 2a36 033d 7230 73bd 8b39 51bd
00000230: 6f34 1cbd 96df b93a 2cc9 e0bc 8774 653c
00000240: 51b8 c8bb c796 71bc c6e0 c13c 9717 053d
00000250: 3153 1c3d 6ec8 573d 37f4 c2bc bd3f 963d
00000260: 40cf 033c bf16 0a3c 5932 a8bd f7d9 79bd
00000270: 540b 88bd c5f7 78bc 8378 8a3d 93aa 85bb
00000280: 64c3 6fbd 5dad 6c3d 0e8e 5b3d 6bf9 f83c
00000290: 407f 6bbd 3c87 ae3c 35f1 25bd 9c83 02bd
000002a0: e560 6ebd dca4 b7bc d062 2fbc 7156 373d
000002b0: 3b77 a83c 6218 d93c 2941 973d 19fc a73d
000002c0: 31f7 743d 4ce8 44bc 16f6 84bd c930 3a3d
000002d0: bef7 29bb c1b0 05ba 32a1 6abd 50da fcbb
000002e0: abd2 81bd fb1d 523d 02ac a9bd 5fb5 35bd
000002f0: f337 59bc 0dc4 c7bc 5b0b 1a3d bb11 70bc
00000300: d44e cebc ebd8 2bbb 1b3e 713d 35ef 4fbd
00000310: d9c0 d63d 65c3 d43d 4a89 223e e7ab 52bd
00000320: 2121 51bd cd10 babd fa61 873d 21f0 77bd
00000330: 4b51 653d b40b fb3b 8a3a 8abd 1580 7cbc
00000340: a006 5a3d f655 debc 3e46 a23b b8b3 6f3c
00000350: 3d17 8bbd 084b 8b3d 5370 b03d d9a4 dd3d
00000360: e77e cc3d fe18 8dbd 593c 9ebd 217a db3d
00000370: 99cf 2bbd 2961 dd3d d9ad bfbc 066e a5bc
00000380: b832 0c3c 4038 1cbc 093a 0abc 594d 473d
00000390: 0026 163e 2f18 de3d 8f73 103d 6f85 9fbd
000003a0: 4fe3 883d 610b f1bc 9cb1 11bd f3d1 c73d
000003b0: 6fb8 e7bc 8d2c a83c 2542 c23d 207e 92bc
000003c0: 8fab a6bd abed 22bd e799 533d e098 443c
000003d0: eef9 bfbd 0274 1cbd cfa9 97bd e0e4 aabd
000003e0: f1de 80bd da1b 4c3d bc49 823d 30d0 c8bc
000003f0: 6020 543b 22d5 033d 78ac 0d3c 2d06 14bd
0.028503459 -0.038563468 -0.015539518 0.03387378 -0.020731462 0.014912425 -0.029524097 0.0004180839
0.04231373 0.038517136 0.043647975 -0.06894758 0.04186371 -0.086064614 0.07351567 -0.03477137
0.0452685 0.011732505 0.031860415 0.013529577 -0.027502242 -0.03879633 0.017715413 -0.0068449
-0.0020203288 0.001733527 0.041084994 0.0072892904 -0.0072862394 0.06098959 0.0349307 0.08638209
0.045349285 -0.05005455 -0.065306395 -0.059100922 0.08593976 -0.011985707 0.039972574 -0.052459415
0.08023962 -0.04243725 0.063416466 0.0153942555 -0.048807845 0.045772083 -0.012780692 0.015839627
-0.010048169 0.0014024139 -0.07173731 -0.030331537 0.038097266 -0.019353395 0.060114555 0.07255026
-0.012378185 -0.037562415 0.04394806 0.022398092 -0.046651326 0.04687684 0.043813795 0.064006135
-0.05225136 0.005542126 -0.011682488 0.0036479803 -0.06872281 -0.053782977 0.025699738 -0.0016346117
0.021329157 6.787133e-05 0.013561566 -0.00547388 0.036773194 0.025593225 -0.059073895 0.048389185
-0.06507967 -0.070787415 0.036739156 -0.01976514 0.03466636 0.0040351497 -0.035816718 0.033666585
-0.03319759 0.051859718 0.03730053 -0.07058864 0.029169485 0.0020067026 -0.0357483 -0.01879918
0.038822215 0.0010650258 -0.018541815 -0.009388098 0.07894508 -0.014056383 0.06578222 0.012916678
-0.029371837 -0.055672288 0.054001782 0.018070323 0.036125846 -0.002994871 0.01286363 0.06545709
0.058970105 -0.058717795 0.0014275624 0.043045744 0.039991733 0.05544643 -0.03694044 -0.06811126
-0.058434848 0.0009716494 0.084589094 -0.059732806 0.050322168 -0.047690567 -0.086003765 -0.036809266
0.056301065 0.056801323 -0.04988825 -0.0051102904 0.039311297 0.060865063 0.017952643 0.061723795
0.058393385 0.032034077 -0.059372373 -0.051080268 -0.038135942 0.0014181014 -0.027439676 0.014004833
-0.006125488 -0.014745421 0.02366675 0.0324932 0.038165275 0.05268138 -0.023798091 0.07336376
0.008045018 0.008428275 -0.08212728 -0.060998883 -0.06642786 -0.015195792 0.06761267 -0.004079172
-0.05853595 0.05778252 0.05360227 0.03039237 -0.057494402 0.02130472 -0.040513236 -0.031863794
-0.058197875 -0.022417478 -0.010704711 0.04476017 0.020564666 0.026500884 0.07385475 0.08202381
0.059806053 -0.0120182745 -0.0649225 0.04545668 -0.002593502 -0.0005099886 -0.057282634 -0.0077164546
-0.0633901 0.051298123 -0.08284761 -0.044362422 -0.013257968 -0.024385476 0.037608486 -0.014652665
-0.025184073 -0.0026221822 0.05889712 -0.050765235 0.104860015 0.10388831 0.15872684 -0.05143347
-0.051056985 -0.09085236 0.066104844 -0.06053174 0.05598573 0.007661307 -0.06749447 -0.0154113965
0.053228974 -0.027140599 0.004952221 0.014630251 -0.06791542 0.068014205 0.08615174 0.10822458
0.09985142 -0.068895325 -0.07726354 0.107166536 -0.041946027 0.108095475 -0.023398327 -0.020194065
0.008557014 -0.009534895 -0.008436688 0.04865775 0.14662933 0.108444564 0.035266455 -0.07789122
0.06683981 -0.029424371 -0.035569772 0.097568415 -0.028286187 0.020529056 0.09485272 -0.017882407
-0.08138191 -0.03977744 0.051660445 0.011999339 -0.09373842 -0.03819657 -0.07405435 -0.08344436
-0.06292523 0.04983125 0.0636172 -0.024513334 0.003236793 0.03218568 0.008647077 -0.036138702

rnn.i2h.bias f4 [128]
00000000: bf07 74bc 42cf 243d f693 d5bc a2b1 a2bd
00000010: 42c6 6fbd ada2 b43a b0f4 3dbd 28cb a93d
00000020: 7527 97bd c5a4 e93c 027d e7bc c9f0 92bd
00000030: 5d0f 553d 65eb e1bc f8a9 5e3d c35f ed3c
00000040: 4ec3 4ebd ea6a 99bd c621 8c3d c0d5 69bc
00000050: acdf 00bb aead 463d fc4e 9b3d 87ed 4ebd
00000060: fc6f 9bbd 9444 823c 35e7 8d3d 528f b6bd
00000070: 327d 933d 753a 6dbd a65c 563d ef0d 9e3d
00000080: 9896 bf3c 700c 92bd 2b24 8b3d 7014 a83d
00000090: ba27 463d 48fd 9b3c fc7c 883d 93f1 a9bd
000000a0: d57a 4a3d 6d67 2ebd 13c8 b8bd caaa 4f3d
000000b0: 28ac 86bd 175c 3ebd 1f22 8b3c 83e5 273d
000000c0: f670 b2bd 412b 32bd db76 09bd f486 9fbd
000000d0: f5d0 7fbd 54af 6f3d 4489 ba3d 026f b5bd
000000e0: 214a 80bd cd22 99bc a51d 603d 6557 eabc
000000f0: ea6e 4d3d 04e6 47bd 6112 9abd ae14 adbc
00000100: 8287 633d fea7 9abd 63f2 3abd 41af b8bd
00000110: be48 5ebd 6ad4 cb3c e5fa 4bbd 8043 203d
00000120: 5467 b73d 5fc0 273d 99b9 babd a344 d23c
00000130: b66b 303d 427a f33c 5db6 b23d 9390 acbd
00000140: cccb 86bc a1f9 5dbd 5684 a4bd d4dc f83c
00000150: 8e49 113d 1d1f 1abd 0571 383a ee57 4c3d
00000160: e63d 6bbd 8df0 6f3d c239 70bd b2af 6ebd
00000170: 2945 c63c 37c3 813d fb0a 2e3d f5ce 60bd
00000180: 15f2 2ebd b581 b33d ea30 473d 7798 f9bc
00000190: 46b3 6ebd fbff 1b3d 1833 55bd 2a1a 95bd
000001a0: c475 bc3c 604a dc3c d802 e03c cf24 b93d
000001b0: 5fba dd3c ce3f 813c 0c20 203d bcbd 4f3c
000001c0: 9da2 7a3d aa18 adbd 2f08 37bd 86c2 e03b
000001d0: 0fd2 993d 484e b9bc 15ac 163d 55b4 bd3c
000001e0: 64c6 7c3b d330 84bd aa7b 7ebd ad6c 9d3d
000001f0: e8e5 e5bc 727a 923d 4949 0a3d 3592 953d
-0.014894425 0.04023672 -0.02607153 -0.07944037 -0.058538683 0.0013781391 -0.04637593 0.08290702
-0.07380573 0.028520951 -0.02825785 -0.071748324 0.052016605 -0.027578065 0.054361314 0.028976327
-0.050479226 -0.07491095 0.06842379 -0.014272153 -0.0019664569 0.048505478 0.075834244 -0.050519492
-0.07589719 0.015901841 0.06928865 -0.08914055 0.072016135 -0.057917077 0.05233445 0.07717501
0.023387238 -0.071312785 0.06794008 0.08207023 0.04837773 0.019041672 0.06664464 -0.0829803
0.049433548 -0.042579103 -0.09022536 0.050699987 -0.06575805 -0.046474542 0.016984044 0.040990364
-0.08712952 -0.04349828 -0.033560615 -0.07789412 -0.062455136 0.058516815 0.091082126 -0.08859064
-0.06264139 -0.018693352 0.05471577 -0.028606126 0.050154604 -0.048803344 -0.07523037 -0.021128025
0.055549152 -0.07551573 -0.045641314 -0.09017802 -0.05426859 0.02488156 -0.04979982 0.039126873
0.08955255 0.040954944 -0.09117431 0.025667494 0.04307147 0.029721383 0.08726189 -0.08426013
-0.0164546 -0.054193143 -0.080330536 0.030378737 0.035470538 -0.03762733 0.0007035884 0.049888544
-0.057432078 0.058579016 -0.058648832 -0.058273025 0.0242029 0.063360624 0.04249094 -0.05488487
-0.042711336 0.08764974 0.048630632 -0.030468209 -0.058276437 0.03808592 -0.05205068 -0.07280381
0.023005374 0.026890934 0.027345106 0.09040224 0.027066408 0.015777495 0.039093062 0.012679514
0.061190236 -0.0845197 -0.04468554 0.0068591265 0.075107686 -0.022620335 0.036785204 0.023157278
0.0038570398 -0.06454625 -0.062129654 0.07686744 -0.02806373 0.07152261 0.033761296 0.073032774

rnn.i2o.weight f4 [24, 192]
00000000: 541a 2d3d 1473 93bd c0b7 a1bd 1075 a2bc
00000010: 309c 053c de75 153d 906b 2f3d b461 113d
00000020: 241f 543d aefb 283d 6e2d 83bd 6081 a73b
00000030: be35 813d 58a1 7d3d f01c 0abd 96b0 333d
00000040: f85e 213d 4650 d0bc 4877 4f3c 80a4 1bbc
00000050: a1e3 7dbd 00b8 e93a 80bd ffba 0712 50bd
00000060: ec3a dcbc 0259 60bd 28e6 a1bc 10a9 0ebc
00000070: cae8 70bd 92e4 69bd 949a 6b3d a878 333c
00000080: ce27 9dbc 78f7 5d3c 50ef 703c 384f 6a3d
00000090: 42f6 c8bc 482f 22bc 0031 193a d822 1f3d
000000a0: b435 8b3c 4e58 453d d4c8 8e3d c8b8 6b3c
000000b0: e213 1c3d d067 b23b 4061 823c 5051 debb
000000c0: 05bc 10bd 8053 0f3b 800f c33c 0456 3ebc
000000d0: 58e7 e73c 62f4 0c3d 8a98 f6bc 8eb4 89bd
000000e0: 3c0d 24bd 60a9 843d 8ef2 8ebc 2ae6 cabc
000000f0: 2cf1 a53c d8e9 6c3c 6981 1cbd 4899 153c
00000100: 7b6d d7bd f88a f33d efe6 cb3d 6668 d03d
00000110: 2a6b ea3c 85e1 c5bd 1864 dd3c 2c6b b2bd
00000120: c416 ea3b 6d6f 013e 2b61 de3d af1e 823d
00000130: d205 b5bd f8db 363d f280 8bbd 72ed f5bd
00000140: 2009 813d d808 b73d 5f2a 9fbd dbe1 efbd
00000150: 8911 01be 24d9 0a3d 747d db38 f9bb a5bc
00000160: ffb4 4dbd d82d edbd 2b53 cbbd 00ec d73c
00000170: 4696 003d 6329 85bb e8c6 f8bd 70f2 88bd
00000180: 8108 81bb e734 fd3d 0933 0cbd 35cf e53b
00000190: e1dd 4cbd 1735 db3c 9205 213d 8171 933c
000001a0: ad9b b6bd e4e4 183c 7ffe a73d 0ff7 a7bd
000001b0: 1d48 1d3d 1f2b 833d c3fb 34bc a80e 97bd
000001c0: 5f2a 013e f07f 52bc 03d4 753d 6141 0a3e
000001d0: 63db ee3d a3d8 00bd f850 6dbd 96a6 c53d
000001e0: 328e 813d f617 ef3d 3c0e a6bd 3a57 ec3d
000001f0: f0d0 06be 31ef 3abd 7ad7 b73b f749 993c
00000200: 1e04 5dbd 326c 4b3d 392c 12bd 5398 e23d
00000210: 31af 8fbb f960 c0bd aa51 04bd 4b95 4fbd
00000220: ae84 c6bb 9fb9 36bd 0c1d e63d 3b3a 04be
00000230: 99fb 003e bcbb 3fbd 072e 1fbd dcc0 b43d
00000240: 2446 b5bd 963b db3d 7c0b 7e3b d989 74bd
00000250: e2cf b43c 0967 e5bc cf49 c43c 6944 173b
00000260: 961c 84bc 99a5 d63d 06e0 ac3d 9012 0d3e
00000270: 1861 dd3c e25a e2bd 4847 d2bd 88c7 b03d
00000280: 927c c6bd 845f 953d 1bbf 663d b0ec a73d
00000290: 1b85 0cbd 7f96 f4bc f719 e53d 2102 c03d
000002a0: 7f01 6ebd 44d7 b8bd 180d 7abd 0d37 5dbc
000002b0: b3a5 f5bd 3eea f33c d635 88b8 cef6 9bbd
000002c0: 98c9 54bc 361f 083e a9f8 e53d 0891 da3d
000002d0: 2db6 75bd ba02 6dbd 27ef 7a3c 36e9 55bb
000002e0: a6cb 4e3d 61db 0ebd 2f20 943d 61cc 593b
000002f0: f5bc 31bc fa57 b3bd 3d61 84bd 19b5 cdbd
00000300: ca31 053d 65a0 b4bd e583 6dbd 602c e1bb
00000310: 1c66 7dbd 38fe 4c3c 88b4 06bc 54b9 e43c
00000320: 24dd 14bd 8092 f7bc 6bc1 12bd c8d0 21bd
00000330: d47f 1b3d 10c7 0a3c 0421 053d 605b 883c
00000340: e098 9abb 081a 803c 0fb2 85bd 4f90 2ebd
00000350: 0016 17bc 9ed2 373d 70c0 6d3d 80ca 53bb
00000360: e8b7 343d 14b6 6d3d 7c96 0d3d b24d ecbc
00000370: 0c70 e23c 4410 f83c ec9c ab3c e1ce 7abd
00000380: 3e1c 21bd 4825 883c 7cda 2d3d 8696 dfbc
00000390: 3c86 0ebd fcce 2bbd 7afa 52bd e2bc 3b3d
000003a0: 702b 213c c4b3 dbbc 51bd 63bd 841b e6bc
000003b0: 3746 77bd b012 65bc 1e84 333d 98e4 7fbd
000003c0: 5747 18bd 1254 2abd 3275 11bd 4075 f43c
000003d0: 600c 663b d49e 42bd 82a6 273d 7c26 683d
000003e0: a0c7 483c c0e9 dc3c 1046 6bbd 56af 01bd
000003f0: 968a 3fbd 9050 16bc 5661 87bd 8647 8f3d
0.042261437 -0.07199684 -0.07896376 -0.01983121 0.008154914 0.03648936 0.04282719 0.035493568
0.05178751 0.041255645 -0.064051494 0.0051118582 0.06309079 0.061921448 -0.033719003 0.043869577
0.03939721 -0.025428902 0.012662716 -0.009499669 -0.061984662 0.0017831326 -0.0019511431 -0.050798442
-0.026883565 -0.054772384 -0.019763067 -0.0087073 -0.058815755 -0.057102747 0.057520464 0.01095406
-0.01918402 0.013547771 0.014705494 0.057204455 -0.024531487 -0.009898968 0.00058437884 0.03885159
0.016993381 0.048179917 0.06971899 0.014387317 0.0381049 0.0054445043 0.015915513 -0.0067845955
-0.03533556 0.0021869838 0.023811102 -0.011617187 0.028308555 0.03441275 -0.030102033 -0.06723891
-0.040051684 0.06477618 -0.017449643 -0.024767954 0.020256601 0.01446005 -0.038209353 0.009130783
-0.105189286 0.118917406 0.099561565 0.101761624 0.028615553 -0.09662155 0.027025267 -0.08711848
0.007143827 0.12640162 0.10858377 0.06353509 -0.08839001 0.044643372 -0.06811704 -0.1200818
0.063005686 0.08937234 -0.077717535 -0.117130004 -0.12604345 0.033898488 0.00010466101 -0.020231234
-0.05022144 -0.115810096 -0.099279724 0.02635765 0.031393312 -0.0040637716 -0.12147313 -0.06686866
-0.0039377813 0.12363606 -0.03422836 0.0070132264 -0.050016288 0.026758714 0.039311953 0.017998459
-0.089164115 0.0093319155 0.08202838 -0.082014196 0.03839885 0.06404709 -0.011046353 -0.07375842
0.1261382 -0.0128478855 0.060016643 0.13501503 0.116629384 -0.0314566 -0.057938546 0.09650914
0.0632595 0.11674492 -0.08108184 0.11540075 -0.13165641 -0.045638267 0.0056104036 0.018712027
-0.053959005 0.04966373 -0.035686705 0.1106421 -0.004384898 -0.09393496 -0.032304443 -0.050679486
-0.006058297 -0.044610616 0.11236009 -0.12912838 0.12595977 -0.046809897 -0.038862254 0.088258475
-0.08851269 0.107047245 0.003876417 -0.059701774 0.022071782 -0.028003233 0.023960976 0.0023081547
-0.016126912 0.10480804 0.084411666 0.13776612 0.027023837 -0.11052491 -0.10267502 0.086318076
-0.09691729 0.07293609 0.056334596 0.081994414 -0.034306627 -0.029856918 0.11186593 0.09375406
-0.058106896 -0.09025434 -0.061047643 -0.013501895 -0.11994495 0.029774781 -6.495013e-05 -0.07615434
-0.012987517 0.13293156 0.11229069 0.10672194 -0.05998819 -0.05786393 0.015315807 -0.0032640225
0.050487183 -0.034877185 0.07232701 0.0033233392 -0.0108482735 -0.087570146 -0.06463859 -0.10044307
0.032518186 -0.08819655 -0.057987113 -0.006871745 -0.061864957 0.012511782 -0.008221753 0.027920403
-0.03634371 -0.030221224 -0.03582899 -0.03950575 0.037963703 0.008470312 0.03250219 0.016645133
-0.004717931 0.015637413 -0.065281026 -0.042618092 -0.009221554 0.044878595 0.05804485 -0.0032316744
0.0441207 0.05803497 0.03456734 -0.028845642 0.027641319 0.030281194 0.02094885 -0.06123245
-0.039333574 0.01661934 0.04244469 -0.027293455 -0.034795985 -0.041945443 -0.051508404 0.04583443
0.009837016 -0.026819117 -0.055600468 -0.028089292 -0.060369696 -0.013981506 0.04382717 -0.062473863
-0.03717741 -0.041584082 -0.035512157 0.029841065 0.003510259 -0.04751475 0.04093028 0.056677327
0.012254626 0.02696693 -0.057439864 -0.031661354 -0.046763025 -0.009174481 -0.06610362 0.06996064

rnn.i2o.bias f4 [24]
00000000: a44f 48bd cb4c 6dbc 3982 c4bd 9f1c 89bd
00000010: 3ea1 08bc 4d75 083d 76ab 763d f04e 883d
00000020: 0058 1ebd 4603 543d 912f 013d 376d bcbb
00000030: 70e9 54bc b101 82bd 843b debc 8ca3 053d
00000040: 9a60 c0bd 2999 48bd 9ff6 b03c 674f 833c
00000050: 9311 f83c 7c52 9abd 1834 b03c ecf2 b7bc
-0.048904076 -0.014483641 -0.095951505 -0.06694912 -0.008339224 0.03331499 0.06022211 0.06655681
-0.038658142 0.051760934 0.031539503 -0.005750324 -0.012995109 -0.06347979 -0.027127989 0.032626674
-0.09393425 -0.04897419 0.021601973 0.016029073 0.030281818 -0.07535264 0.021509215 -0.022454701

exp_avg f4 [128, 192]
00000000: 3c91 6931 827d 6532 de4a dab8 0000 0000
00000010: 1c06 80ba 1f34 a638 3735 7939 16b0 3939
00000020: 5b6a abb9 9edb c6b9 0b32 89b8 f13d 3e3a
00000030: da17 31b9 33a4 263a a522 15bb 5622 17b8
00000040: aa39 41b9 553c 9538 55d3 7f39 fed8 92b8
00000050: a657 bdb7 2c61 4739 7815 d2b8 548b 2eb8
00000060: 85eb a2b6 20ca 1a38 5223 48b8 50f2 a039
00000070: 99fe aeb9 f1cd a937 5e4c 4cb6 9e2d 17b7
00000080: a4e3 1ab8 b425 acb7 05f5 b337 c807 2636
00000090: 3ed8 3938 8071 c737 f52a da37 462b ac38
000000a0: 1e83 e436 c4f1 4ab7 3c20 24b8 54fc a9b6
000000b0: f477 4d38 c97d 5136 e29b c537 9290 b037
000000c0: c886 d935 0308 55b7 30e6 89b6 61ec 0337
000000d0: 2458 4b37 8924 15b7 0a64 8137 9f5c c1b5
000000e0: 4e68 27b6 4e98 99b4 0000 0000 0000 0000
000000f0: 0000 0000 0000 0000 0000 0000 0000 0000
00000100: a78b 82b9 d0c3 1fb9 2271 2d3a 9443 cc39
00000110: d4e6 2a3a 12d1 4eba a642 473a 06b5 4eba
00000120: 8538 833a f93c d539 153d 313a 8173 a139
00000130: 46e5 72ba 80b5 103a 8817 93b9 57f4 10ba
00000140: f751 9439 858d 193a 40c0 68ba 3b34 9ab8
00000150: 19a5 e7b9 b653 34ba caea 16ba 34eb 213a
00000160: 1a3d 6a3a e809 15ba 857d 8aba 4f09 603a
00000170: 3e9f ffb8 9058 b239 a644 78ba 9ced 4fba
00000180: 909b 66ba 6641 5c3a e84a 44ba cefb 1bba
00000190: f1db b5b9 2808 01ba 4346 bab9 48b0 163a
000001a0: 5ef7 11ba da15 6538 f63a 1a3a 7c9e 40ba
000001b0: 8b24 9c3a ae0a 4839 57c4 a039 4643 7dba
000001c0: 4377 193a 80f3 b139 0767 f239 40d3 433a
000001d0: e5f2 123a bf08 74b9 8ec7 6aba c6db 643a
000001e0: 0883 133a b5f3 a437 e8ff 9aba 981a 273a
000001f0: 8af6 35ba 5637 ceb8 5e03 1a3a bc4d 523a
00000200: 23f3 abba 26a5 1c3a d8e9 05b9 8d1d 5e3a
00000210: 5b5f 893a 4e55 66ba 47d4 1d3a d05a 26ba
00000220: 1224 72ba 3149 6cba ce6b 633a 16a2 16ba
00000230: 7b24 0339 d16b 26ba f9c8 6cba f15e 983a
00000240: bbb4 9e39 2ced fe39 3e89 f938 3b51 ecb8
00000250: f795 7db9 a44a b638 565d b239 4ca9 0c38
00000260: 72e9 e2b9 702d 2638 80c6 523a 7ef2 3f3a
00000270: a656 0739 d846 8bba b121 5eba 8702 deb8
00000280: 16eb 36ba dd35 beb9 f0e8 fcb9 a54b 253a
00000290: 9c3d b839 90ed 80b9 e275 903a 83c0 293a
000002a0: 46b9 93b9 bcfb dbb9 bebe 96ba 9237 88ba
000002b0: 2dd3 93b7 d281 c139 d8f8 06ba 4155 5eba
000002c0: 1679 80ba 1830 173a 1e2b 6f3a 7e33 2a38
000002d0: 3271 0bba 467e 86b9 9b31 78b9 f21f f238
000002e0: 92b2 293a 10b2 a039 4cdc 063a 9a4e 38ba
000002f0: 60a5 47b5 cadd 28ba 143b 61ba 8a42 66ba
00000300: 3d44 fcb1 78d2 3132 fe74 19b9 0000 0000
00000310: 84a4 b6bb db4f 3ebb 0332 6dbb 1aa0 b03a
00000320: 2ee7 c23a fb5b 5e3a 834e 3d39 963a 283a
00000330: cc35 56b9 166f a43a 806d a53a 32ef 293a
00000340: 1dec 84b9 b623 4f3a fa89 6438 5e19 1539
00000350: de87 ae39 16cc 31ba 41bb cbb8 10a3 22b9
00000360: 34f1 0db9 59e2 6e38 4b2e 0d39 bf39 06b8
00000370: ade2 edb9 a2b6 2fb8 40f9 30b9 f84b 0ab9
00000380: 28a4 5539 9011 88b9 550f a8b8 e6a9 2ab9
00000390: 552c 8bb9 7001 2ab9 362e 45b9 83b2 6d39
000003a0: 0924 4cb8 118e d5b7 62d8 7eb8 68d5 b2b8
000003b0: d194 2eb8 bc17 d738 4f18 23b9 2c2e c5b6
000003c0: 89d1 2939 cb03 a437 4162 65b8 30de 33b8
000003d0: a0ea 1e39 3b53 ab38 2805 dd37 1fe1 bd37
000003e0: 4c1e 1a38 0386 4734 0000 0000 0000 0000
000003f0: 0000 0000 0000 0000 0000 0000 0000 0000
3.3988519e-09 1.33580915e-08 -0.00010408995 0.0 -0.0009767446 7.925205e-05 0.00023766315 0.00017708572
-0.00032694903 -0.0003792913 -6.54199e-05 0.0007257155 -0.00016888921 0.0006356865 -0.0022756245 -3.6033183e-05
-0.00018427396 7.1161114e-05 0.00024397422 -7.0022405e-05 -2.257137e-05 0.00019014318 -0.00010017579 -4.1614592e-05
-4.8553943e-06 3.6904705e-05 -4.771661e-05 0.00030698115 -0.00033377556 2.0242269e-05 -3.044282e-06 -9.010922e-06
-3.6928468e-05 -2.0521555e-05 2.1452559e-05 2.4740457e-06 4.430883e-05 2.3775501e-05 2.6007629e-05 8.2096594e-05
6.8101936e-06 -1.2096429e-05 -3.9130668e-05 -5.0659673e-06 4.8987524e-05 3.1216643e-06 2.3556819e-05 2.1048156e-05
1.6206986e-06 -1.2697655e-05 -4.1097155e-06 7.863245e-06 1.2120265e-05 -8.889599e-06 1.5424583e-05 -1.4406577e-06
-2.4945653e-06 -2.8609287e-07 0.0 0.0 0.0 0.0 0.0 0.0
-0.0002489958 -0.00015236367 0.00066162844 0.00038960262 0.00065193814 -0.000788943 0.0007601179 -0.0007885251
0.0010011351 0.00040671954 0.0006761116 0.0003079437 -0.0009265732 0.00055202097 -0.00028055557 -0.00055295735
0.00028289828 0.0005857575 -0.0008878745 -7.353021e-05 -0.0004418276 -0.0006878929 -0.0005757032 0.00061767106
0.00089354964 -0.0005685375 -0.0010565972 0.0008546309 -0.00012189009 0.0003401679 -0.00094706786 -0.000793183
-0.00087969843 0.0008402079 -0.00074879685 -0.00059503026 -0.0003468688 -0.0004922175 -0.00035529034 0.0005748314
-0.00055681716 5.4618205e-05 0.00058834197 -0.0007347835 0.0011912746 0.00019077465 0.00030663863 -0.00096612086
0.0005854258 0.00033941492 0.00046234598 0.00074701384 0.0005605652 -0.00023272911 -0.00089561276 0.00087302586
0.000562713 1.9663808e-05 -0.0011825534 0.0006374507 -0.0006941339 -9.8331526e-05 0.00058751355 0.00080224476
-0.0013118725 0.0005975537 -0.00012770982 0.00084730313 0.0010480689 -0.0008786515 0.00060207065 -0.00063459296
-0.0009236942 -0.0009013592 0.0008675427 -0.00057461986 0.00012506724 -0.00063484634 -0.0009032633 0.0011624974
0.00030270763 0.00048623362 0.000118988086 -0.00011268487 -0.00024183826 8.692339e-05 0.00034020346 3.353627e-05
-0.0004328001 3.96198e-05 0.0008040443 0.0007322206 0.00012906882 -0.0010625971 -0.00084736483 -0.00010586256
-0.00069777796 -0.00036279755 -0.00048238738 0.00063055224 0.00035141117 -0.0002459106 0.001102146 0.0006475525
-0.00028176064 -0.00041958492 -0.0011500937 -0.0010392538 -1.7622102e-05 0.00036908552 -0.0005148775 -0.0008481332
-0.0009801711 0.00057673594 0.00091235514 4.0579114e-05 -0.00053192966 -0.00025652553 -0.00023669603 0.000115454095
0.00064734474 0.00030650245 0.0005144521 -0.00070307555 -7.437393e-07 -0.00064417406 -0.0008591872 -0.0008783719
-7.341923e-09 1.0350611e-08 -0.000146348 0.0 -0.005573811 -0.0029039297 -0.003619314 0.0013475448
0.0014869922 0.0008482334 0.00018053692 0.00064174214 -0.00020428671 0.0012545313 0.0012621135 0.0006482481
-0.0002535292 0.00079017447 5.4487937e-05 0.00014219197 0.00033289095 -0.00067824253 -9.714673e-05 -0.0001551027
-0.00013536663 5.6954425e-05 0.00013464053 -3.200187e-05 -0.0004537305 -4.189334e-05 -0.00016877521 -0.00013189006
0.00020374416 -0.00025953026 -8.01372e-05 -0.00016275755 -0.00026545176 -0.00016212999 -0.00018804599 0.00022668582
-4.867095e-05 -2.5457733e-05 -6.075984e-05 -8.5274514e-05 -4.162343e-05 0.0001025642 -0.00015553947 -5.8764326e-06
0.00016195154 1.955209e-05 -5.468936e-05 -4.2883854e-05 0.00015155459 8.169418e-05 2.6347654e-05 2.2635386e-05
3.6744677e-05 1.8582072e-07 0.0 0.0 0.0 0.0 0.0 0.0

exp_avg_sq f4 [128, 192]
00000000: c487 1c2c 1d64 3833 8b99 5834 0000 0000
00000010: 0701 4e35 8f46 f434 2da8 8334 aaf3 9b34
00000020: cdaa 3b35 8024 9234 7670 3434 ab70 e934
00000030: 2bdf cc33 4f03 7d34 edaf 5e36 a46a 8c33
00000040: 6079 a233 9573 df34 6110 bc33 74e2 1233
00000050: 3660 2c33 27ea 4b33 49d4 3933 023c f831
00000060: a396 8d31 c7c8 cc31 1e8f 8d32 5de1 2d33
00000070: 9f64 0d33 95df 1731 87cc 2331 f583 4131
00000080: 8752 9731 daf2 0c31 e7a7 0b32 8b7c 0032
00000090: 1cb2 0d31 5688 7d31 8600 b331 b778 8132
000000a0: 4ac3 2b31 b5ac 8731 6b02 5d30 621b 5430
000000b0: 2870 7f31 2af9 af30 56d3 db30 fddb a731
000000c0: 4034 4a30 c9fb 2731 48ae 1130 bb6b 1b30
000000d0: 7861 e12f 9d72 3a30 e758 8b30 8446 de2f
000000e0: 306e fa2f 46d2 c82f 0000 0000 0000 0000
000000f0: 0000 0000 0000 0000 0000 0000 0000 0000
00000100: 808b db36 ee43 4936 1f61 bc36 4c40 ce35
00000110: e622 3636 d0d2 4936 12dd c036 ca70 a836
00000120: 109f 0037 85fb 7736 794f 2e37 1670 4035
00000130: e702 7d37 416f e436 8548 7335 1ff0 9436
00000140: 6828 a234 f115 5e36 8a3e 2735 d80a 0637
00000150: ea73 d836 d7b1 0f34 d466 f833 37d2 2835
00000160: 1cd6 da35 394b e336 6b84 2337 59c4 3d36
00000170: 0974 8435 c31f 2e35 6d8d d336 651f 1336
00000180: 2858 bc36 b660 9837 f6a3 fc36 df51 e236
00000190: 645c 4836 fd8c df35 0d8a 1034 a7a4 9635
000001a0: f31d e234 f309 9535 e9d7 8536 674c 1c37
000001b0: 9ace f736 d500 c834 c0d8 2036 6529 1137
000001c0: 9ac5 0837 4156 ac35 0351 d334 97fa 0637
000001d0: bea9 8e36 811f 9635 ca6c 0037 7962 a536
000001e0: 304a 5036 a01a 9b36 044c 5c37 33ed 3f36
000001f0: 0964 0f37 29c6 0637 47d4 e633 08a5 8a34
00000200: d5a4 6337 7126 0837 35a2 d335 6747 8b35
00000210: 5434 e235 d6e4 e036 59b9 6434 d803 5437
00000220: 68cf 4037 c05f 3537 4ada a736 7b8d 5636
00000230: 2c35 9736 8342 6937 f558 fc36 01fe 9a37
00000240: d2c6 3235 ad5a 0937 b279 7435 9755 1737
00000250: 27ac 9b36 8bbf 7036 0811 2c36 7071 b436
00000260: 5f2e 8434 c936 8836 5060 d436 58c8 3336
00000270: 27b8 a134 298f cf36 4125 2e36 9627 1c36
00000280: ce1f 2937 84ca 4c34 890a 3734 5e68 6036
00000290: f688 f734 f6d9 d936 c0c9 0b37 4673 4436
000002a0: cce2 f235 21dc ff36 2dd7 b137 859c 0137
000002b0: 74bb 9435 3f1e 0837 642a 7f36 034f 1837
000002c0: c52a 8b37 e515 9d36 35ae c436 8659 1d36
000002d0: aecc 0236 9c3a b636 d320 df35 d3f6 0935
000002e0: e1df 0036 e9f2 a636 f4fa ca35 b354 fb36
000002f0: 821d 5f36 1145 ca36 9352 6137 289c 0b37
00000300: d498 362d 046b dd32 9a0b df34 0000 0000
00000310: bc0f bb36 c9ee a736 e3d6 6d36 7e59 1336
00000320: d919 f335 c8a0 9435 f843 7a35 ff73 6d35
00000330: 29bc 3835 2569 8c35 28ce 9135 7393 e634
00000340: fae1 1a35 dbca 9234 8d8d 6a34 a834 3234
00000350: 5601 ac34 958f 7734 b024 db33 b725 b733
00000360: 7917 6333 2fa6 6433 c027 f133 8435 ce33
00000370: 7573 2d33 8dd0 1833 1e07 1b33 b12a 1833
00000380: af83 2933 ddea ec32 7224 7033 c60d 2e33
00000390: 27ed 0033 45ae 0133 683e 8533 f2a8 1734
000003a0: 89fc f232 bbc4 7a33 2447 c832 30b2 8732
000003b0: a95d 1a33 74dc da32 48e6 8232 2ef5 b732
000003c0: 8ef4 3932 825f 7632 bed6 bc31 2852 5431
000003d0: a6c2 0d32 71f2 8e31 3ee9 fa31 5336 3831
000003e0: 1850 ad30 c36e 642f 0000 0000 0000 0000
000003f0: 0000 0000 0000 0000 0000 0000 0000 0000
2.2244298e-12 4.293189e-08 2.0172426e-07 0.0 7.6742475e-07 4.549988e-07 2.4523015e-07 2.904829e-07
6.9911476e-07 2.7221176e-07 1.680472e-07 4.348161e-07 9.540084e-08 2.3563665e-07 3.318298e-06 6.538656e-08
7.565791e-08 4.1621084e-07 8.7574115e-08 3.4199232e-08 4.0134374e-08 4.747758e-08 4.326674e-08 7.224572e-09
4.1207655e-09 5.960007e-09 1.6479643e-08 4.0484668e-08 3.2920635e-08 2.2100484e-09 2.3835882e-09 2.8160205e-09
4.4040607e-09 2.0510726e-09 8.129041e-09 7.478898e-09 2.0619444e-09 3.6893844e-09 5.209645e-09 1.5072471e-08
2.4994784e-09 3.9486516e-09 8.040277e-10 7.7164064e-10 3.7171137e-09 1.2803743e-09 1.5994412e-09 4.8853495e-09
7.3561424e-10 2.4444822e-09 5.299836e-10 5.6541766e-10 4.0996517e-10 6.782928e-10 1.0138849e-09 4.043167e-10
4.5553028e-10 3.6529196e-10 0.0 0.0 0.0 0.0 0.0 0.0
6.5429485e-06 2.9990874e-06 5.614143e-06 1.5366909e-06 2.7140427e-06 3.0074043e-06 5.747782e-06 5.0199205e-06
7.666429e-06 3.6952272e-06 1.0389712e-05 7.168868e-07 1.5080651e-05 6.807881e-06 9.0630084e-07 4.4386975e-06
3.020425e-07 3.309335e-06 6.2303354e-07 7.989547e-06 6.450796e-06 1.338261e-07 1.1567104e-07 6.289078e-07
1.630458e-06 6.7738843e-06 9.746388e-06 2.8277484e-06 9.868537e-07 6.486627e-07 6.304754e-06 2.192298e-06
5.6130993e-06 1.8164847e-05 7.529273e-06 6.744856e-06 2.98561e-06 1.6655828e-06 1.3461268e-07 1.1223791e-06
4.211757e-07 1.1104261e-06 3.988844e-06 9.316113e-06 7.385225e-06 3.7253508e-07 2.3968023e-06 8.652311e-06
8.152239e-06 1.2840102e-06 3.9360756e-07 8.045367e-06 4.2516904e-06 1.118504e-06 7.654724e-06 4.928847e-06
3.1037598e-06 4.6224595e-06 1.3130721e-05 2.8599286e-06 8.546755e-06 8.03316e-06 1.07488226e-07 2.582458e-07
1.3568632e-05 8.115182e-06 1.5767934e-06 1.0377088e-06 1.6853542e-06 6.70236e-06 2.1301584e-07 1.263708e-05
1.1492382e-05 1.0810734e-05 5.0024e-06 3.1970837e-06 4.5063407e-06 1.3903368e-05 7.520541e-06 1.847651e-05
6.659949e-07 8.186948e-06 9.1074173e-07 9.020229e-06 4.639401e-06 3.587428e-06 2.563991e-06 5.377624e-06
2.4620655e-07 4.0594937e-06 6.3293046e-06 2.6789694e-06 3.0122575e-07 6.1857468e-06 2.5949705e-06 2.3268854e-06
1.008059e-05 1.9072655e-07 1.7047036e-07 3.343935e-06 4.6106987e-07 6.492478e-06 8.332019e-06 2.9273374e-06
1.8096412e-06 7.6252186e-06 2.1200243e-05 7.725442e-06 1.1081415e-06 8.113274e-06 3.8022636e-06 9.078302e-06
1.6590007e-05 4.6815135e-06 5.8615356e-06 2.3446933e-06 1.9490649e-06 5.4308457e-06 1.6624348e-06 5.1395654e-07
1.92038e-06 4.975464e-06 1.512321e-06 7.490243e-06 3.3246765e-06 6.0281095e-06 1.3430271e-05 8.321404e-06
1.0379437e-11 2.5776451e-08 4.1545428e-07 0.0 5.574866e-06 5.004786e-06 3.5440833e-06 2.1956798e-06
1.8112434e-06 1.1073653e-06 9.3231165e-07 8.8458177e-07 6.881915e-07 1.0461414e-06 1.0863341e-06 4.2948122e-07
5.769831e-07 2.7342216e-07 2.1844444e-07 1.6596698e-07 3.203847e-07 2.3055902e-07 1.02046556e-07 8.528462e-08
5.2873904e-08 5.323653e-08 1.12296675e-07 9.602357e-08 4.038471e-08 3.5579934e-08 3.6095223e-08 3.5429085e-08
3.9468144e-08 2.758082e-08 5.59125e-08 4.052506e-08 3.001801e-08 3.019365e-08 6.204647e-08 1.4124433e-07
2.8287348e-08 5.8386586e-08 2.3315415e-08 1.5797099e-08 3.5941103e-08 2.547879e-08 1.5238712e-08 2.1415499e-08
1.0824023e-08 1.43408005e-08 5.4959335e-09 3.089676e-09 8.251538e-09 4.1603063e-09 7.302474e-09 2.6806404e-09
1.2610171e-09 2.077583e-10 0.0 0.0 0.0 0.0 0.0 0.0

exp_avg f4 [128]
00000000: 2a08 12bb 213d c5bb 2427 60bb ac1b 023b
00000010: 98ab f3b9 74cb 4bbb 8a09 d0bb b621 81b9
00000020: ce74 86bb e1fc a3bb 6c51 d9bb b7dc 38bb
00000030: 089c 523b 6f7c c3bb 4172 bdba 816f 803b
00000040: 6446 a2bb 0c4d 64bb 0e13 11bb 02c1 893b
00000050: 5a43 f0ba 400d 24bc 40ee 8fbc e890 383c
00000060: 56f0 c63b 43a5 193b bc3b 953a 6215 083a
00000070: 6ab5 3cbc 60ef b43b a299 983b 60b2 ed3a
00000080: 74e2 403a 071d 3bbb 5269 8e3b fcb9 1d3b
00000090: 6cca 5dba a473 2dbc 6c06 38bc e9d3 b23a
000000a0: b8ee adbb af6b 44bb ef5a 0cbb 1e91 aa3b
000000b0: 613b 333b 2774 e83a 6435 f83a 29ee c6ba
000000c0: 7619 823a 6e46 443c c1f9 de3b 8054 0039
000000d0: eb78 b1bb f3ce 13bc 4cec 183b b4ad 71bb
000000e0: 33e5 93bb 90ff 59ba e02a ea39 8aab 28bb
000000f0: 4836 163c 8a57 803a 2cd8 833c b1a0 453c
00000100: 9a1e a53b 59e2 10ba 77e9 07ba fced 2f3c
00000110: 8e0e 123c de82 513a 0801 653c 5a63 543b
00000120: 234b d53b f307 193c 3d10 f13b 3658 80ba
00000130: 1849 8bb9 e03e bd3b 7743 a03b c136 f3ba
00000140: ca58 14bb 4d98 2a3b 8c90 fe3b d278 f53b
00000150: f00c 4ebc 241e 353c f447 67b9 3811 cbbb
00000160: fb62 2cbb 2c18 aabb 8b2e b9bb b05c 7fb9
00000170: 5b79 a2bb 8606 013a e65c 8d39 dd32 db3b
00000180: ab37 e03b 28b8 67bc 4088 c8bb 003d a6bb
00000190: 74e5 c73b c8e2 713b 1015 cfba e563 01bb
000001a0: 98f7 053b da2c 463c d36a ae3b 489f 8dba
000001b0: 34a2 a63b 5501 bbbb 4b63 1b3a 3743 883b
000001c0: 9926 4aba acd0 c6bb 93ed c6ba 9994 37bc
000001d0: c014 64ba b907 d23b 49e4 81bb a240 1c3b
000001e0: 350f bebb b282 7f3b 88eb 58bb d790 d03b
000001f0: 790d f83a c7c3 973b c4c5 923b a296 723b
-0.0022282698 -0.00601925 -0.0034203017 0.001985292 -0.0004647642 -0.003109661 -0.0063487934 -0.00024629914
-0.0041032797 -0.0050045107 -0.0066320207 -0.0028207728 0.003213646 -0.0059657614 -0.0014453606 0.0039195423
-0.004952239 -0.0034835963 -0.0022136602 0.0042039165 -0.0018330619 -0.010012925 -0.017569661 0.011265017
0.0060711307 0.002344445 0.00113856 0.00051911746 -0.011517862 0.0055217 0.0046569863 0.0018134825
0.0007357963 -0.0028551237 0.0043460513 0.0024067154 -0.0008460644 -0.010586653 -0.011232 0.0013643476
-0.0053079985 -0.002997141 -0.0021416505 0.0052052876 0.0027348625 0.0017734811 0.001893681 -0.0015177178
0.0009925801 0.011979682 0.0068046753 0.0001223851 -0.005416026 -0.0090215085 0.0023334203 -0.0036877217
-0.0045134067 -0.0008315975 0.00044663902 -0.002573701 0.009168215 0.0009791714 0.01609429 0.012062238
0.0050390484 -0.00055268925 -0.000518463 0.010737892 0.008914603 0.0007992218 0.013977297 0.003240785
0.006509201 0.009340274 0.007356672 -0.0009791914 -0.00026566605 0.0057753175 0.004890855 -0.0018555747
-0.002263593 0.002603072 0.007768696 0.0074912095 -0.012576327 0.011054549 -0.00022056681 -0.006197121
-0.0026304114 -0.00519087 -0.0056513003 -0.00024353224 -0.0049583144 0.00049219315 0.0002696283 0.006689413
0.0068425736 -0.014143027 -0.006119758 -0.0050731897 0.006100351 0.0036908854 -0.0015799124 -0.001974338
0.0020441767 0.012095654 0.005322793 -0.0010804916 0.005085254 -0.005706946 0.00059275766 0.0041584033
-0.000771144 -0.006067356 -0.0015177004 -0.011204862 -0.0008700602 0.006409612 -0.0039639813 0.0023842235
-0.0058001527 0.0038987813 -0.0033099372 0.0063649225 0.0018924914 0.004631493 0.004479142 0.0037016054

exp_avg_sq f4 [128]
00000000: 3b86 0e38 21fd 8339 0394 633a 6727 923a
00000010: 67d5 e93a f69c 0539 f2a0 6f38 fec3 be38
00000020: 9ceb d03a c021 9537 1c61 203a 161d 4139
00000030: 4d3b 953a d1eb 063a c09f 873a 84ff d339
00000040: be07 8d38 77ea e83a 5f00 1b39 5c1f 9738
00000050: 85f3 ff38 1ce5 843a 45e4 b33a 429d b639
00000060: 6789 b138 35c7 893a e5a9 ca39 f8c1 b03a
00000070: 7d59 fa3a 33d1 9e38 c591 0139 6d38 923a
00000080: cdcd 533a f196 a63a 7332 7d3a a49f 353a
00000090: 4c58 6838 40e7 0639 c67b af39 ffda 793a
000000a0: a8bc a439 465f 0e3a dafb 9c3a c516 d43a
000000b0: 4565 f639 3481 4a38 5acb 4238 983d 933a
000000c0: 0571 183a e20b d439 7a22 a838 7874 d13a
000000d0: 553c 1f3a 09c7 0439 971a 053a bd1f 0b39
000000e0: 2caa 8b3a 4a11 8237 9fb1 913a bccb aa39
000000f0: 82d5 4c3a a084 7e38 5793 1d3a bf00 b839
00000100: 30d9 093a ced8 5e39 5062 a537 790f cf3a
00000110: d7e2 823a 3adb 843a b0aa ae3a 098d 473a
00000120: 381b 763a e35b 253a b31d bf39 04ef a73a
00000130: 2258 4b37 5eb2 c639 e4cd cc39 0b74 123a
00000140: 68fe 0038 2890 a739 4f48 cf39 3538 8538
00000150: 3dc3 8138 95b3 d338 0cfa b738 c625 4939
00000160: 022f 1239 d418 3338 dd18 d739 b202 873a
00000170: 9a98 cf38 dc12 643a 7b1b 9637 08ba e638
00000180: 64bb 3d38 14bb ce3a 43a6 0e39 1660 4239
00000190: 7e2b de38 d091 ad39 c572 133a 6dc2 923a
000001a0: ea4c cd39 14f6 b539 df42 ba39 7214 7f3a
000001b0: 7dcf 0339 362a 1939 a1d1 b339 57af 0339
000001c0: 974a c539 613f 3f3b 822a 5d39 96f0 7b39
000001d0: 23ba 113a 87c0 2c38 8d5c 4838 f02a 1538
000001e0: 0b0b 3839 770f 9237 a1a9 a43a e59c 803a
000001f0: ddd4 2d39 8ec7 0d3a 061b ac3a a3cc 433a
3.398045e-05 0.00025174863 0.0008681418 0.0011150659 0.0017840088 0.00012742341 5.7131932e-05 9.0964124e-05
0.0015939358 1.77779e-05 0.0006117986 0.0001841675 0.0011385471 0.0005146834 0.0010347292 0.0004043543
6.724846e-05 0.0017770071 0.0001478209 7.206082e-05 0.000122047066 0.0010139081 0.0013724646 0.0003483091
8.465611e-05 0.0010511639 0.00038655024 0.0013485542 0.0019100156 7.5729935e-05 0.00012356702 0.0011155732
0.0008079678 0.0012709779 0.00096587016 0.00069283904 5.5395343e-05 0.00012865383 0.0003347082 0.0009531229
0.00031421077 0.0005431067 0.0011976913 0.0016181102 0.00046996228 4.8280883e-05 4.644259e-05 0.0011233566
0.0005815181 0.00040444644 8.017286e-05 0.0015980145 0.0006074359 0.00012662647 0.00050775096 0.00013267896
0.0010655574 1.5505258e-05 0.0011115557 0.0003257672 0.00078137976 6.0681836e-05 0.000601103 0.0003509577
0.0005258499 0.00021252336 1.9715313e-05 0.0015797458 0.0009985816 0.0010136135 0.0013326015 0.00076122634
0.0009388211 0.00063079427 0.00036452487 0.0012812321 1.2120263e-05 0.00037898397 0.00039063313 0.000558675
3.0754512e-05 0.00031960127 0.0003953599 6.3524036e-05 6.187565e-05 0.00010094714 8.772695e-05 0.00019182925
0.00013941157 4.270005e-05 0.0004102652 0.0010300486 9.8989534e-05 0.000870032 1.789419e-05 0.00011001906
4.5235633e-05 0.0015772306 0.00013604113 0.00018537077 0.00010593886 0.0003310577 0.0005624707 0.0011196859
0.00039157952 0.00034706353 0.00035526507 0.00097305246 0.00012570429 0.00014606942 0.00034297726 0.00012558453
0.00037630342 0.0029182064 0.00021092038 0.0002402685 0.00055590476 4.11873e-05 4.776991e-05 3.5564357e-05
0.00017551721 1.7411758e-05 0.001256276 0.0009812383 0.00016577863 0.0005408459 0.0013130612 0.0007469153

exp_avg f4 [24, 192]
00000000: 0000 0000 5ae9 f537 7514 703a 0000 0000
00000010: 0000 0000 0000 0000 0000 0000 0000 0000
00000020: 0000 0000 0000 0000 0000 0000 0000 0000
00000030: 0000 0000 0000 0000 0000 0000 0000 0000
00000040: 0000 0000 0000 0000 0000 0000 0000 0000
00000050: 0000 0000 0000 0000 0000 0000 0000 0000
00000060: 0000 0000 0000 0000 0000 0000 0000 0000
00000070: 0000 0000 0000 0000 0000 0000 0000 0000
00000080: 0000 0000 0000 0000 0000 0000 0000 0000
00000090: 0000 0000 0000 0000 0000 0000 0000 0000
000000a0: 0000 0000 0000 0000 0000 0000 0000 0000
000000b0: 0000 0000 0000 0000 0000 0000 0000 0000
000000c0: 0000 0000 0000 0000 0000 0000 0000 0000
000000d0: 0000 0000 0000 0000 0000 0000 0000 0000
000000e0: 0000 0000 0000 0000 0000 0000 0000 0000
000000f0: 0000 0000 0000 0000 0000 0000 0000 0000
00000100: 8475 9e39 71a2 8ab9 f13b eab9 729b 56b9
00000110: baa5 a5b9 79ab d939 26f0 03ba 4c0c cb39
00000120: 5145 01ba 7f1e a4b9 4ec3 11ba 8600 c2b8
00000130: 804e 293a 643f dfb9 bbaf 4039 24a9 c139
00000140: f83a 3ab9 caab 9eb9 4413 0d39 2f9b 8c39
00000150: 6a86 fc39 4469 a538 11d3 9638 23a8 4fb9
00000160: 9bad dfb7 8b20 e139 4da3 fc39 4c13 c3b9
00000170: fd18 09b9 18bb a038 525b fc39 1904 7139
00000180: ca2f d839 cd0c 1eba 18df 023a a625 e339
00000190: 188d 82b8 9922 0bb9 ae72 8a38 6ae7 5eb9
000001a0: f4b9 7039 a2eb 1db9 8cca 94b9 3e53 e839
000001b0: 1de2 20ba 71ab 0cb8 d4c1 f038 14a9 0c3a
000001c0: 74c5 0cba 6e22 7538 4061 37b9 9440 07ba
000001d0: f3f2 d0b9 50a2 a435 0670 023a 798d f1b9
000001e0: df13 8ab9 614e 9db9 fecb 2b3a c76c a5b9
000001f0: 1851 fa39 f7ca 8b39 cca6 efb8 0120 bdb8
00000200: c2de 2c3a 1662 11ba d2ac 69b7 5e4e 79b9
00000210: bc18 c1b9 9a7f d939 0008 24b9 cfae e939
00000220: 24a2 103a 425f 063a ceb4 e7b9 4427 b939
00000230: a324 69b9 2d95 153a 2e4e 063a 68f5 45ba
00000240: d7ce 0738 ae38 fcb9 8274 62b9 3663 b539
00000250: 4b5d 48b9 1490 c6b7 2249 82b9 2ff6 9db9
00000260: 8283 3839 ac36 bfb9 b884 cbb9 d537 b3b9
00000270: 3d67 4c39 1c44 0c3a e151 ab38 454d 9fb9
00000280: 05a4 1b3a 0fe0 48b8 cbee 8237 a64f 82b9
00000290: 4bf5 03b8 428e 9c39 f71f 07ba f5c9 71b9
000002a0: 31b6 2f39 f861 bc39 2234 5f3a 747a 043a
000002b0: 9040 eb38 669b f2b9 fc42 d239 681f 103a
000002c0: ce52 443a d573 c8b9 556f e4b9 72c9 2ab9
000002d0: 1208 5139 5464 cc39 8c1d f6b7 8c2f c738
000002e0: 5bd0 3fb9 10e6 0439 a9cd 0ab9 b010 e939
000002f0: e4da 4739 211b b039 06c9 103a 089f fc39
00000300: 0000 0000 61ec f737 447e 813a 0000 0000
00000310: 0000 0000 0000 0000 0000 0000 0000 0000
00000320: 0000 0000 0000 0000 0000 0000 0000 0000
00000330: 0000 0000 0000 0000 0000 0000 0000 0000
00000340: 0000 0000 0000 0000 0000 0000 0000 0000
00000350: 0000 0000 0000 0000 0000 0000 0000 0000
00000360: 0000 0000 0000 0000 0000 0000 0000 0000
00000370: 0000 0000 0000 0000 0000 0000 0000 0000
00000380: 0000 0000 0000 0000 0000 0000 0000 0000
00000390: 0000 0000 0000 0000 0000 0000 0000 0000
000003a0: 0000 0000 0000 0000 0000 0000 0000 0000
000003b0: 0000 0000 0000 0000 0000 0000 0000 0000
000003c0: 0000 0000 0000 0000 0000 0000 0000 0000
000003d0: 0000 0000 0000 0000 0000 0000 0000 0000
000003e0: 0000 0000 0000 0000 0000 0000 0000 0000
000003f0: 0000 0000 0000 0000 0000 0000 0000 0000
0.0 2.9314939e-05 0.0009158322 0.0 0.0 0.0 0.0 0.0
0.0 0.0 0.0 0.0 0.0 0.0 0.0 0.0
0.0 0.0 0.0 0.0 0.0 0.0 0.0 0.0
0.0 0.0 0.0 0.0 0.0 0.0 0.0 0.0
0.0 0.0 0.0 0.0 0.0 0.0 0.0 0.0
0.0 0.0 0.0 0.0 0.0 0.0 0.0 0.0
0.0 0.0 0.0 0.0 0.0 0.0 0.0 0.0
0.0 0.0 0.0 0.0 0.0 0.0 0.0 0.0
0.00030223664 -0.0002644244 -0.00044676618 -0.00020466538 -0.00031594728 0.00041517222 -0.00050330383 0.0003872834
-0.00049312884 -0.0003130324 -0.00055604137 -9.2507384e-05 0.0006458536 -0.00042581104 0.00018376012 0.00036937848
-0.0001776031 -0.000302641 0.00013453985 0.00026818502 0.00048165332 7.88742e-05 7.1918716e-05 -0.00019803694
-2.6664513e-05 0.0004293959 0.00048186854 -0.00037207676 -0.00013074647 7.6642435e-05 0.00048133224 0.00022985078
0.00041234336 -0.0006029129 0.000499235 0.00043324864 -6.225164e-05 -0.00013268962 6.6017135e-05 -0.00021257778
0.00022957457 -0.00015060467 -0.0002837967 0.00044312509 -0.0006137209 -3.353827e-05 0.00011480195 0.0005365771
-0.0005369999 5.8444617e-05 -0.00017488468 -0.0005159464 -0.00039853863 1.2266191e-06 0.0004975799 -0.00046072507
-0.00026336216 -0.0003000377 0.00065535295 -0.00031552298 0.00047744135 0.00026663367 -0.000114274764 -9.0181835e-05
0.0006594473 -0.0005545927 -1.392812e-05 -0.00023775685 -0.00036830257 0.00041484536 -0.00015643239 0.00044571466
0.0005517325 0.0005125889 -0.00044194463 0.00035315205 -0.0002223426 0.0005706128 0.0005123344 -0.0007551522
3.2379143e-05 -0.00048107415 -0.00021596442 0.00034596928 -0.0001910824 -2.3670531e-05 -0.0002485002 -0.00030128795
0.00017596598 -0.00036471093 -0.0003881806 -0.0003418314 0.00019493415 0.0005350725 8.1691665e-05 -0.00030384414
0.00059372216 -4.7892387e-05 1.5608404e-05 -0.00024854875 -3.146128e-05 0.0002986063 -0.00051546044 -0.00023058786
0.00016757172 0.00035931147 0.00085145433 0.00050536473 0.00011217699 -0.00046273618 0.00040104229 0.0005497844
0.00074891455 -0.00038233274 -0.00043570498 -0.00016287508 0.000199348 0.00038984662 -2.9339244e-05 9.497916e-05
-0.00018292798 0.00012674206 -0.0001323732 0.00044453656 0.00019059662 0.0003358955 0.0005523119 0.00048183673
0.0 2.9554767e-05 0.0009879549 0.0 0.0 0.0 0.0 0.0
0.0 0.0 0.0 0.0 0.0 0.0 0.0 0.0
0.0 0.0 0.0 0.0 0.0 0.0 0.0 0.0
0.0 0.0 0.0 0.0 0.0 0.0 0.0 0.0
0.0 0.0 0.0 0.0 0.0 0.0 0.0 0.0
0.0 0.0 0.0 0.0 0.0 0.0 0.0 0.0
0.0 0.0 0.0 0.0 0.0 0.0 0.0 0.0
0.0 0.0 0.0 0.0 0.0 0.0 0.0 0.0
